…
cution":{"iopub.status.busy":"2024-03-28T04:51:48.242537Z","iopub.execute_input":"2024-03-28T04:51:48.243522Z","iopub.status.idle":"2024-03-28T04:51:48.532858Z","shell.execute_reply.started":"2024-03-28T04:51:48.243436Z","shell.execute_reply":"2024-03-28T04:51:48.531277Z"},"trusted":true},"execution_count":14,"outputs":[{"name":"stdout","text":"Model: \"sequential\"\n_________________________________________________________________\nLayer (type)                 Output Shape              Param #   \n=================================================================\nconv2d (Conv2D)              (None, 26, 26, 32)        320       \n_________________________________________________________________\nmax_pooling2d (MaxPooling2D) (None, 13, 13, 32)        0         \n_________________________________________________________________\nconv2d_1 (Conv2D)            (None, 11, 11, 128)       36992     \n_________________________________________________________________\nmax_pooling2d_1 (MaxPooling2 (None, 6, 6, 128)         0         \n_________________________________________________________________\nconv2d_2 (Conv2D)            (None, 4, 4, 512)         590336    \n_________________________________________________________________\nmax_pooling2d_2 (MaxPooling2 (None, 2, 2, 512)         0         \n_________________________________________________________________\nflatten (Flatten)            (None, 2048)              0         \n_________________________________________________________________\ndense (Dense)                (None, 1024)              2098176   \n_________________________________________________________________\ndense_1 (Dense)              (None, 256)               262400    \n_________________________________________________________________\ndropout (Dropout)            (None, 256)               0         \n_________________________________________________________________\ndense_2 (Dense)              (None, 25)                6425      \n=================================================================\nTotal params: 2,994,649\nTrainable params: 2,994,649\nNon-trainable params: 0\n_________________________________________________________________\n","output_type":"stream"}]},{"cell_type":"code","source":"learning_rate_reduction = ReduceLROnPlateau(monitor='val_accuracy', patience = 2, verbose=1,factor=0.5, min_lr=0.00001)\n
…
